…
Skipping registering GPU devices...
2023-02-22 08:15:28.890964: I tensorflow/core/platform/cpu_feature_guard.cc:151] This TensorFlow binary is optimized with oneAPI Deep Neural Network Library (oneDNN) to use the following CPU instructions in performance-critical operations:  AVX AVX2
To enable them in other operations, rebuild TensorFlow with the appropriate compiler flags.
Model: "sequential"
_________________________________________________________________
 Layer (type)                Output Shape              Param #
=================================================================
 conv2d (Conv2D)             (None, 198, 198, 16)      448

 max_pooling2d (MaxPooling2D  (None, 99, 99, 16)       0
 )

 conv2d_1 (Conv2D)           (None, 97, 97, 32)        4640

 max_pooling2d_1 (MaxPooling  (None, 48, 48, 32)       0
 2D)

 conv2d_2 (Conv2D)           (None, 46, 46, 64)        18496

 max_pooling2d_2 (MaxPooling  (None, 23, 23, 64)       0
 2D)

 conv2d_3 (Conv2D)           (None, 21, 21, 64)        36928

 max_pooling2d_3 (MaxPooling  (None, 10, 10, 64)       0
 2D)

 conv2d_4 (Conv2D)           (None, 8, 8, 64)          36928

 max_pooling2d_4 (MaxPooling  (None, 4, 4, 64)         0
 2D)

 flatten (Flatten)           (None, 1024)              0

 dense (Dense)               (None, 128)               131200

 dense_1 (Dense)             (None, 20)                2580

=================================================================
Total params: 231,220
Trainable params: 231,220
Non-trainable params: 0
_________________________________________________________________
Epoch 1/30
WARNING:tensorflow:AutoGraph could not transform <function Model.make_train_function.<locals>.train_function at 0x0000027B50E985E8> and will run it as-is.
Please report this to the TensorFlow team. When filing the bug, set the verbosity to 10 (on Linux, `export AUTOGRAPH_VERBOSITY=10`) and attach the full output.
…
